…
/home/fye/anaconda3/envs/cuda_env/lib/python3.10/site-packages/numpy/core/fromnumeric.py:57: FutureWarning: 'Series.swapaxes' is deprecated and will be removed in a future version. Please use 'Series.transpose' instead.
  return bound(*args, **kwds)
2024-09-13 10:55:18,766 - root - DEBUG - Summary of the original model:
2024-09-13 10:55:19,552 - root - DEBUG - Model: "original_model"
┏━━━━━━━━━━━━━━━━━━━━━┳━━━━━━━━━━━━━━━━━━━┳━━━━━━━━━━━━┳━━━━━━━━━━━━━━━━━━━┓
┃ Layer (type)        ┃ Output Shape      ┃    Param # ┃ Connected to      ┃
┡━━━━━━━━━━━━━━━━━━━━━╇━━━━━━━━━━━━━━━━━━━╇━━━━━━━━━━━━╇━━━━━━━━━━━━━━━━━━━┩
│ constit_input_cr    │ (None, 30, 12)    │          0 │ -                 │
│ (InputLayer)        │                   │            │                   │
├─────────────────────┼───────────────────┼────────────┼───────────────────┤
│ track_input_cr      │ (None, 20, 10)    │          0 │ -                 │
│ (InputLayer)        │                   │            │                   │
├─────────────────────┼───────────────────┼────────────┼───────────────────┤
│ constit_input_adv   │ (None, 30, 12)    │          0 │ -                 │
│ (InputLayer)        │                   │            │                   │
├─────────────────────┼───────────────────┼────────────┼───────────────────┤
│ track_input_adv     │ (None, 20, 10)    │          0 │ -                 │
│ (InputLayer)        │                   │            │                   │
├─────────────────────┼───────────────────┼────────────┼───────────────────┤
│ conv1d (Conv1D)     │ (None, 30, 64)    │        832 │ constit_input_cr… │
│                     │                   │            │ constit_input_ad… │
├─────────────────────┼───────────────────┼────────────┼───────────────────┤
│ conv1d_3 (Conv1D)   │ (None, 20, 64)    │        704 │ track_input_cr[0… │
│                     │                   │            │ track_input_adv[… │
├─────────────────────┼───────────────────┼────────────┼───────────────────┤
│ conv1d_1 (Conv1D)   │ (None, 30, 32)    │      2,080 │ conv1d[0][0],     │
│                     │                   │            │ conv1d[1][0]      │
├─────────────────────┼───────────────────┼────────────┼───────────────────┤
│ conv1d_4 (Conv1D)   │ (None, 20, 32)    │      2,080 │ conv1d_3[0][0],   │
│                     │                   │            │ conv1d_3[1][0]    │
├─────────────────────┼───────────────────┼────────────┼───────────────────┤
│ MSeg_input_cr       │ (None, 30, 6)     │          0 │ -                 │
│ (InputLayer)        │                   │            │                   │
├─────────────────────┼───────────────────┼────────────┼───────────────────┤
│ MSeg_input_adv      │ (None, 30, 6)     │          0 │ -                 │
│ (InputLayer)        │                   │            │                   │
├─────────────────────┼───────────────────┼────────────┼───────────────────┤
│ dropout (Dropout)   │ (None, 30, 32)    │          0 │ conv1d_1[0][0],   │
│                     │                   │            │ conv1d_1[1][0]    │
├─────────────────────┼───────────────────┼────────────┼───────────────────┤
│ dropout_4 (Dropout) │ (None, 20, 32)    │          0 │ conv1d_4[0][0],   │
│                     │                   │            │ conv1d_4[1][0]    │
├─────────────────────┼───────────────────┼────────────┼───────────────────┤
│ conv1d_6 (Conv1D)   │ (None, 30, 32)    │        224 │ MSeg_input_cr[0]… │
│                     │                   │            │ MSeg_input_adv[0… │
├─────────────────────┼───────────────────┼────────────┼───────────────────┤
│ conv1d_2 (Conv1D)   │ (None, 30, 32)    │      1,056 │ dropout[0][0],    │
│                     │                   │            │ dropout[1][0]     │
├─────────────────────┼───────────────────┼────────────┼───────────────────┤
│ conv1d_5 (Conv1D)   │ (None, 20, 32)    │      1,056 │ dropout_4[0][0],  │
│                     │                   │            │ dropout_4[1][0]   │
├─────────────────────┼───────────────────┼────────────┼───────────────────┤
│ conv1d_7 (Conv1D)   │ (None, 30, 16)    │        528 │ conv1d_6[0][0],   │
│                     │                   │            │ conv1d_6[1][0]    │
├─────────────────────┼───────────────────┼────────────┼───────────────────┤
│ dropout_1 (Dropout) │ (None, 30, 32)    │          0 │ conv1d_2[0][0],   │
│                     │                   │            │ conv1d_2[1][0]    │
├─────────────────────┼───────────────────┼────────────┼───────────────────┤
│ dropout_5 (Dropout) │ (None, 20, 32)    │          0 │ conv1d_5[0][0],   │
│                     │                   │            │ conv1d_5[1][0]    │
├─────────────────────┼───────────────────┼────────────┼───────────────────┤
│ dropout_8 (Dropout) │ (None, 30, 16)    │          0 │ conv1d_7[0][0],   │
│                     │                   │            │ conv1d_7[1][0]    │
├─────────────────────┼───────────────────┼────────────┼───────────────────┤
│ constit_final_conv… │ (None, 30, 16)    │        528 │ dropout_1[0][0],  │
│ (Conv1D)            │                   │            │ dropout_1[1][0]   │
├─────────────────────┼───────────────────┼────────────┼───────────────────┤
│ track_final_conv1d  │ (None, 20, 16)    │        528 │ dropout_5[0][0],  │
│ (Conv1D)            │                   │            │ dropout_5[1][0]   │
├─────────────────────┼───────────────────┼────────────┼───────────────────┤
│ MSeg_final_conv1d   │ (None, 30, 8)     │        136 │ dropout_8[0][0],  │
│ (Conv1D)            │                   │            │ dropout_8[1][0]   │
├─────────────────────┼───────────────────┼────────────┼───────────────────┤
│ dropout_2 (Dropout) │ (None, 30, 16)    │          0 │ constit_final_co… │
│                     │                   │            │ constit_final_co… │
├─────────────────────┼───────────────────┼────────────┼───────────────────┤
│ dropout_6 (Dropout) │ (None, 20, 16)    │          0 │ track_final_conv… │
│                     │                   │            │ track_final_conv… │
├─────────────────────┼───────────────────┼────────────┼───────────────────┤
│ dropout_9 (Dropout) │ (None, 30, 8)     │          0 │ MSeg_final_conv1… │
│                     │                   │            │ MSeg_final_conv1… │
├─────────────────────┼───────────────────┼────────────┼───────────────────┤
│ lstm (LSTM)         │ (None, 10)        │      1,080 │ dropout_2[0][0],  │
│                     │                   │            │ dropout_2[1][0]   │
├─────────────────────┼───────────────────┼────────────┼───────────────────┤
│ lstm_1 (LSTM)       │ (None, 10)        │      1,080 │ dropout_6[0][0],  │
│                     │                   │            │ dropout_6[1][0]   │
├─────────────────────┼───────────────────┼────────────┼───────────────────┤
│ lstm_2 (LSTM)       │ (None, 5)         │        280 │ dropout_9[0][0],  │
│                     │                   │            │ dropout_9[1][0]   │
├─────────────────────┼───────────────────┼────────────┼───────────────────┤
│ dropout_3 (Dropout) │ (None, 10)        │          0 │ lstm[0][0],       │
│                     │                   │            │ lstm[1][0]        │
├─────────────────────┼───────────────────┼────────────┼───────────────────┤
│ dropout_7 (Dropout) │ (None, 10)        │          0 │ lstm_1[0][0],     │
│                     │                   │            │ lstm_1[1][0]      │
├─────────────────────┼───────────────────┼────────────┼───────────────────┤
│ dropout_10          │ (None, 5)         │          0 │ lstm_2[0][0],     │
│ (Dropout)           │                   │            │ lstm_2[1][0]      │
├─────────────────────┼───────────────────┼────────────┼───────────────────┤
│ jet_input_cr        │ (None, 3)         │          0 │ -                 │
│ (InputLayer)        │                   │            │                   │
├─────────────────────┼───────────────────┼────────────┼───────────────────┤
│ jet_input_adv       │ (None, 3)         │          0 │ -                 │
│ (InputLayer)        │                   │            │                   │
├─────────────────────┼───────────────────┼────────────┼───────────────────┤
│ concatenate         │ (None, 28)        │          0 │ dropout_3[0][0],  │
│ (Concatenate)       │                   │            │ dropout_7[0][0],  │
│                     │                   │            │ dropout_10[0][0], │
│                     │                   │            │ jet_input_cr[0][… │
├─────────────────────┼───────────────────┼────────────┼───────────────────┤
│ concatenate_1       │ (None, 28)        │          0 │ dropout_3[1][0],  │
│ (Concatenate)       │                   │            │ dropout_7[1][0],  │
│                     │                   │            │ dropout_10[1][0], │
│                     │                   │            │ jet_input_adv[0]… │
├─────────────────────┼───────────────────┼────────────┼───────────────────┤
│ dense_1 (Dense)     │ (None, 512)       │     14,848 │ concatenate[0][0… │
│                     │                   │            │ concatenate_1[0]… │
├─────────────────────┼───────────────────┼────────────┼───────────────────┤
│ dropout_11          │ (None, 512)       │          0 │ dense_1[0][0],    │
│ (Dropout)           │                   │            │ dense_1[1][0]     │
├─────────────────────┼───────────────────┼────────────┼───────────────────┤
│ dense_2 (Dense)     │ (None, 64)        │     32,832 │ dropout_11[0][0], │
│                     │                   │            │ dropout_11[1][0]  │
├─────────────────────┼───────────────────┼────────────┼───────────────────┤
│ dropout_12          │ (None, 64)        │          0 │ dense_2[0][0],    │
│ (Dropout)           │                   │            │ dense_2[1][0]     │
├─────────────────────┼───────────────────┼────────────┼───────────────────┤
│ main_output (Dense) │ (None, 3)         │        195 │ dropout_12[0][0], │
│                     │                   │            │ dropout_12[1][0]  │
├─────────────────────┼───────────────────┼────────────┼───────────────────┤
│ adversary_norm_1    │ (None, 3)         │         12 │ main_output[1][0] │
│ (BatchNormalizatio… │                   │            │                   │
├─────────────────────┼───────────────────┼────────────┼───────────────────┤
│ adversary_1 (Dense) │ (None, 24)        │         96 │ adversary_norm_1… │
├─────────────────────┼───────────────────┼────────────┼───────────────────┤
│ adversary_norm_2    │ (None, 24)        │         96 │ adversary_1[0][0] │
│ (BatchNormalizatio… │                   │            │                   │
├─────────────────────┼───────────────────┼────────────┼───────────────────┤
│ adversary_2 (Dense) │ (None, 12)        │        300 │ adversary_norm_2… │
├─────────────────────┼───────────────────┼────────────┼───────────────────┤
│ adversary_norm_3    │ (None, 12)        │         48 │ adversary_2[0][0] │
│ (BatchNormalizatio… │                   │            │                   │
├─────────────────────┼───────────────────┼────────────┼───────────────────┤
│ adversary_3 (Dense) │ (None, 6)         │         78 │ adversary_norm_3… │
├─────────────────────┼───────────────────┼────────────┼───────────────────┤
│ adversary_norm_4    │ (None, 6)         │         24 │ adversary_3[0][0] │
│ (BatchNormalizatio… │                   │            │                   │
├─────────────────────┼───────────────────┼────────────┼───────────────────┤
│ adversary_out       │ (None, 1)         │          7 │ adversary_norm_4… │
│ (Dense)             │                   │            │                   │
└─────────────────────┴───────────────────┴────────────┴───────────────────┘
 Total params: 60,728 (237.22 KB)
 Trainable params: 60,067 (234.64 KB)
 Non-trainable params: 661 (2.58 KB)

2024-09-13 10:55:19,553 - root - DEBUG - Summary of the discriminator model:
2024-09-13 10:55:20,185 - root - DEBUG - Model: "discriminator_model"
┏━━━━━━━━━━━━━━━━━━━━━┳━━━━━━━━━━━━━━━━━━━┳━━━━━━━━━━━━┳━━━━━━━━━━━━━━━━━━━┓
┃ Layer (type)        ┃ Output Shape      ┃    Param # ┃ Connected to      ┃
┡━━━━━━━━━━━━━━━━━━━━━╇━━━━━━━━━━━━━━━━━━━╇━━━━━━━━━━━━╇━━━━━━━━━━━━━━━━━━━┩
│ constit_input_adv   │ (None, 30, 12)    │          0 │ -                 │
│ (InputLayer)        │                   │            │                   │
├─────────────────────┼───────────────────┼────────────┼───────────────────┤
│ track_input_adv     │ (None, 20, 10)    │          0 │ -                 │
│ (InputLayer)        │                   │            │                   │
├─────────────────────┼───────────────────┼────────────┼───────────────────┤
│ conv1d (Conv1D)     │ (None, 30, 64)    │        832 │ constit_input_ad… │
├─────────────────────┼───────────────────┼────────────┼───────────────────┤
│ conv1d_3 (Conv1D)   │ (None, 20, 64)    │        704 │ track_input_adv[… │
├─────────────────────┼───────────────────┼────────────┼───────────────────┤
│ conv1d_1 (Conv1D)   │ (None, 30, 32)    │      2,080 │ conv1d[1][0]      │
├─────────────────────┼───────────────────┼────────────┼───────────────────┤
│ conv1d_4 (Conv1D)   │ (None, 20, 32)    │      2,080 │ conv1d_3[1][0]    │
├─────────────────────┼───────────────────┼────────────┼───────────────────┤
│ MSeg_input_adv      │ (None, 30, 6)     │          0 │ -                 │
│ (InputLayer)        │                   │            │                   │
├─────────────────────┼───────────────────┼────────────┼───────────────────┤
│ dropout (Dropout)   │ (None, 30, 32)    │          0 │ conv1d_1[1][0]    │
├─────────────────────┼───────────────────┼────────────┼───────────────────┤
│ dropout_4 (Dropout) │ (None, 20, 32)    │          0 │ conv1d_4[1][0]    │
├─────────────────────┼───────────────────┼────────────┼───────────────────┤
│ conv1d_6 (Conv1D)   │ (None, 30, 32)    │        224 │ MSeg_input_adv[0… │
├─────────────────────┼───────────────────┼────────────┼───────────────────┤
│ conv1d_2 (Conv1D)   │ (None, 30, 32)    │      1,056 │ dropout[1][0]     │
├─────────────────────┼───────────────────┼────────────┼───────────────────┤
│ conv1d_5 (Conv1D)   │ (None, 20, 32)    │      1,056 │ dropout_4[1][0]   │
├─────────────────────┼───────────────────┼────────────┼───────────────────┤
│ conv1d_7 (Conv1D)   │ (None, 30, 16)    │        528 │ conv1d_6[1][0]    │
├─────────────────────┼───────────────────┼────────────┼───────────────────┤
│ dropout_1 (Dropout) │ (None, 30, 32)    │          0 │ conv1d_2[1][0]    │
├─────────────────────┼───────────────────┼────────────┼───────────────────┤
│ dropout_5 (Dropout) │ (None, 20, 32)    │          0 │ conv1d_5[1][0]    │
├─────────────────────┼───────────────────┼────────────┼───────────────────┤
│ dropout_8 (Dropout) │ (None, 30, 16)    │          0 │ conv1d_7[1][0]    │
├─────────────────────┼───────────────────┼────────────┼───────────────────┤
│ constit_final_conv… │ (None, 30, 16)    │        528 │ dropout_1[1][0]   │
│ (Conv1D)            │                   │            │                   │
├─────────────────────┼───────────────────┼────────────┼───────────────────┤
│ track_final_conv1d  │ (None, 20, 16)    │        528 │ dropout_5[1][0]   │
│ (Conv1D)            │                   │            │                   │
├─────────────────────┼───────────────────┼────────────┼───────────────────┤
│ MSeg_final_conv1d   │ (None, 30, 8)     │        136 │ dropout_8[1][0]   │
│ (Conv1D)            │                   │            │                   │
├─────────────────────┼───────────────────┼────────────┼───────────────────┤
│ dropout_2 (Dropout) │ (None, 30, 16)    │          0 │ constit_final_co… │
├─────────────────────┼───────────────────┼────────────┼───────────────────┤
│ dropout_6 (Dropout) │ (None, 20, 16)    │          0 │ track_final_conv… │
├─────────────────────┼───────────────────┼────────────┼───────────────────┤
│ dropout_9 (Dropout) │ (None, 30, 8)     │          0 │ MSeg_final_conv1… │
├─────────────────────┼───────────────────┼────────────┼───────────────────┤
│ lstm (LSTM)         │ (None, 10)        │      1,080 │ dropout_2[1][0]   │
├─────────────────────┼───────────────────┼────────────┼───────────────────┤
│ lstm_1 (LSTM)       │ (None, 10)        │      1,080 │ dropout_6[1][0]   │
├─────────────────────┼───────────────────┼────────────┼───────────────────┤
│ lstm_2 (LSTM)       │ (None, 5)         │        280 │ dropout_9[1][0]   │
├─────────────────────┼───────────────────┼────────────┼───────────────────┤
│ dropout_3 (Dropout) │ (None, 10)        │          0 │ lstm[1][0]        │
├─────────────────────┼───────────────────┼────────────┼───────────────────┤
│ dropout_7 (Dropout) │ (None, 10)        │          0 │ lstm_1[1][0]      │
├─────────────────────┼───────────────────┼────────────┼───────────────────┤
│ dropout_10          │ (None, 5)         │          0 │ lstm_2[1][0]      │
│ (Dropout)           │                   │            │                   │
├─────────────────────┼───────────────────┼────────────┼───────────────────┤
│ jet_input_adv       │ (None, 3)         │          0 │ -                 │
│ (InputLayer)        │                   │            │                   │
├─────────────────────┼───────────────────┼────────────┼───────────────────┤
│ concatenate_1       │ (None, 28)        │          0 │ dropout_3[1][0],  │
│ (Concatenate)       │                   │            │ dropout_7[1][0],  │
│                     │                   │            │ dropout_10[1][0], │
│                     │                   │            │ jet_input_adv[0]… │
├─────────────────────┼───────────────────┼────────────┼───────────────────┤
│ dense_1 (Dense)     │ (None, 512)       │     14,848 │ concatenate_1[0]… │
├─────────────────────┼───────────────────┼────────────┼───────────────────┤
│ dropout_11          │ (None, 512)       │          0 │ dense_1[1][0]     │
│ (Dropout)           │                   │            │                   │
├─────────────────────┼───────────────────┼────────────┼───────────────────┤
│ dense_2 (Dense)     │ (None, 64)        │     32,832 │ dropout_11[1][0]  │
├─────────────────────┼───────────────────┼────────────┼───────────────────┤
│ dropout_12          │ (None, 64)        │          0 │ dense_2[1][0]     │
│ (Dropout)           │                   │            │                   │
├─────────────────────┼───────────────────┼────────────┼───────────────────┤
│ main_output (Dense) │ (None, 3)         │        195 │ dropout_12[1][0]  │
├─────────────────────┼───────────────────┼────────────┼───────────────────┤
│ adversary_norm_1    │ (None, 3)         │         12 │ main_output[1][0] │
│ (BatchNormalizatio… │                   │            │                   │
├─────────────────────┼───────────────────┼────────────┼───────────────────┤
│ adversary_1 (Dense) │ (None, 24)        │         96 │ adversary_norm_1… │
├─────────────────────┼───────────────────┼────────────┼───────────────────┤
│ adversary_norm_2    │ (None, 24)        │         96 │ adversary_1[0][0] │
│ (BatchNormalizatio… │                   │            │                   │
├─────────────────────┼───────────────────┼────────────┼───────────────────┤
│ adversary_2 (Dense) │ (None, 12)        │        300 │ adversary_norm_2… │
├─────────────────────┼───────────────────┼────────────┼───────────────────┤
│ adversary_norm_3    │ (None, 12)        │         48 │ adversary_2[0][0] │
│ (BatchNormalizatio… │                   │            │                   │
├─────────────────────┼───────────────────┼────────────┼───────────────────┤
│ adversary_3 (Dense) │ (None, 6)         │         78 │ adversary_norm_3… │
├─────────────────────┼───────────────────┼────────────┼───────────────────┤
│ adversary_norm_4    │ (None, 6)         │         24 │ adversary_3[0][0] │
│ (BatchNormalizatio… │                   │            │                   │
├─────────────────────┼───────────────────┼────────────┼───────────────────┤
│ adversary_out       │ (None, 1)         │          7 │ adversary_norm_4… │
│ (Dense)             │                   │            │                   │
└─────────────────────┴───────────────────┴────────────┴───────────────────┘
 Total params: 60,728 (237.22 KB)
 Trainable params: 571 (2.23 KB)
 Non-trainable params: 60,157 (234.99 KB)

2024-09-13 10:55:20,186 - root - DEBUG - Creating the optimizers for the main training and the adversary training.
…
